…
 another architecture (e.g. initializing a BertForSequenceClassification model from a BertForPreTraining model).\n","- This IS NOT expected if you are initializing DetrForObjectDetection from the checkpoint of a model that you expect to be exactly identical (initializing a BertForSequenceClassification model from a BertForSequenceClassification model).\n"]},{"output_type":"execute_result","data":{"text/plain":["DetrForObjectDetection(\n","  (model): DetrModel(\n","    (backbone): DetrConvModel(\n","      (conv_encoder): DetrConvEncoder(\n","        (model): FeatureListNet(\n","          (conv1): Conv2d(3, 64, kernel_size=(7, 7), stride=(2, 2), padding=(3, 3), bias=False)\n","          (bn1): DetrFrozenBatchNorm2d()\n","          (act1): ReLU(inplace=True)\n","          (maxpool): MaxPool2d(kernel_size=3, stride=2, padding=1, dilation=1, ceil_mode=False)\n","          (layer1): Sequential(\n","            (0): Bottleneck(\n","              (conv1): Conv2d(64, 64, kernel_size=(1, 1), stride=(1, 1), bias=False)\n","              (bn1): DetrFrozenBatchNorm2d()\n","              (act1): ReLU(inplace=True)\n","              (conv2): Conv2d(64, 64, kernel_size=(3, 3), stride=(1, 1), padding=(1, 1), bias=False)\n","              (bn2): DetrFrozenBatchNorm2d()\n","              (drop_block): Identity()\n","              (act2): ReLU(inplace=True)\n","              (aa): Identity()\n","              (conv3): Conv2d(64, 256, kernel_size=(1, 1), stride=(1, 1), bias=False)\n","              (bn3): DetrFrozenBatchNorm2d()\n","              (act3): ReLU(inplace=True)\n","              (downsample): Sequential(\n","                (0): Conv2d(64, 256, kernel_size=(1, 1), stride=(1, 1), bias=False)\n","                (1): DetrFrozenBatchNorm2d()\n","              )\n","            )\n","            (1): Bottleneck(\n","              (conv1): Conv2d(256, 64, kernel_size=(1, 1), stride=(1, 1), bias=False)\n","              (bn1): DetrFrozenBatchNorm2d()\n","              (act1): ReLU(inplace=True)\n","              (conv2): Conv2d(64, 64, kernel_size=(3, 3), stride=(1, 1), padding=(1, 1), bias=False)\n","              (bn2): DetrFrozenBatchNorm2d()\n","              (drop_block): Identity()\n","              (act2): ReLU(inplace=True)\n","              (aa): Identity()\n","              (conv3): Conv2d(64, 256, kernel_size=(1, 1), stride=(1, 1), bias=False)\n","              (bn3): DetrFrozenBatchNorm2d()\n","              (act3): ReLU(inplace=True)\n","            )\n","            (2): Bottleneck(\n","              (conv1): Conv2d(256, 64, kernel_size=(1, 1), stride=(1, 1), bias=False)\n","              (bn1): DetrFrozenBatchNorm2d()\n","              (act1): ReLU(inplace=True)\n","              (conv2): Conv2d(64, 64, kernel_size=(3, 3), stride=(1, 1), padding=(1, 1), bias=False)\n","              (bn2): DetrFrozenBatchNorm2d()\n","              (drop_block): Identity()\n","              (act2): ReLU(inplace=True)\n","              (aa): Identity()\n","              (conv3): Conv2d(64, 256, kernel_size=(1, 1), stride=(1, 1), bias=False)\n","              (bn3): DetrFrozenBatchNorm2d()\n","              (act3): ReLU(inplace=True)\n","            )\n","          )\n","          (layer2): Sequential(\n","            (0): Bottleneck(\n","              (conv1): Conv2d(256, 128, kernel_size=(1, 1), stride=(1, 1), bias=False)\n","              (bn1): DetrFrozenBatchNorm2d()\n","              (act1): ReLU(inplace=True)\n","              (conv2): Conv2d(128, 128, kernel_size=(3, 3), stride=(2, 2), padding=(1, 1), bias=False)\n","              (bn2): DetrFrozenBatchNorm2d()\n","              (drop_block): Identity()\n","              (act2): ReLU(inplace=True)\n","              (aa): Identity()\n","              (conv3): Conv2d(128, 512, kernel_size=(1, 1), stride=(1, 1), bias=False)\n","              (bn3): DetrFrozenBatchNorm2d()\n","              (act3): ReLU(inplace=True)\n","              (downsample): Sequential(\n","                (0): Conv2d(256, 512, kernel_size=(1, 1), stride=(2, 2), bias=False)\n","                (1): DetrFrozenBatchNorm2d()\n","              )\n","            )\n","            (1): Bottleneck(\n","              (conv1): Conv2d(512, 128, kernel_size=(1, 1), stride=(1, 1), bias=False)\n","              (bn1): DetrFrozenBatchNorm2d()\n","              (act1): ReLU(inplace=True)\n","              (conv2): Conv2d(128, 128, kernel_size=(3, 3), stride=(1, 1), padding=(1, 1), bias=False)\n","              (bn2): DetrFrozenBatchNorm2d()\n","              (drop_block): Identity()\n","              (act2): ReLU(inplace=True)\n","              (aa): Identity()\n","              (conv3): Conv2d(128, 512, kernel_size=(1, 1), stride=(1, 1), bias=False)\n","              (bn3): DetrFrozenBatchNorm2d()\n","              (act3): ReLU(inplace=True)\n","            )\n","            (2): Bottleneck(\n","              (conv1): Conv2d(512, 128, kernel_size=(1, 1), stride=(1, 1), bias=False)\n","              (bn1): DetrFrozenBatchNorm2d()\n","              (act1): ReLU(inplace=True)\n","              (conv2): Conv2d(128, 128, kernel_size=(3, 3), stride=(1, 1), padding=(1, 1), bias=False)\n","              (bn2): DetrFrozenBatchNorm2d()\n","              (drop_block): Identity()\n","              (act2): ReLU(inplace=True)\n","              (aa): Identity()\n","              (conv3): Conv2d(128, 512, kernel_size=(1, 1), stride=(1, 1), bias=False)\n","              (bn3): DetrFrozenBatchNorm2d()\n","              (act3): ReLU(inplace=True)\n","            )\n","            (3): Bottleneck(\n","              (conv1): Conv2d(512, 128, kernel_size=(1, 1), stride=(1, 1), bias=False)\n","              (bn1): DetrFrozenBatchNorm2d()\n","              (act1): ReLU(inplace=True)\n","              (conv2): Conv2d(128, 128, kernel_size=(3, 3), stride=(1, 1), padding=(1, 1), bias=False)\n","              (bn2): DetrFrozenBatchNorm2d()\n","              (drop_block): Identity()\n","              (act2): ReLU(inplace=True)\n","              (aa): Identity()\n","              (conv3): Conv2d(128, 512, kernel_size=(1, 1), stride=(1, 1), bias=False)\n","              (bn3): DetrFrozenBatchNorm2d()\n","              (act3): ReLU(inplace=True)\n","            )\n","          )\n","          (layer3): Sequential(\n","            (0): Bottleneck(\n","              (conv1): Conv2d(512, 256, kernel_size=(1, 1), stride=(1, 1), bias=False)\n","              (bn1): DetrFrozenBatchNorm2d()\n","              (act1): ReLU(inplace=True)\n","              (conv2): Conv2d(256, 256, kernel_size=(3, 3), stride=(2, 2), padding=(1, 1), bias=False)\n","              (bn2): DetrFrozenBatchNorm2d()\n","              (drop_block): Identity()\n","              (act2): ReLU(inplace=True)\n","              (aa): Identity()\n","              (conv3): Conv2d(256, 1024, kernel_size=(1, 1), stride=(1, 1), bias=False)\n","              (bn3): DetrFrozenBatchNorm2d()\n","              (act3): ReLU(inplace=True)\n","              (downsample): Sequential(\n","                (0): Conv2d(512, 1024, kernel_size=(1, 1), stride=(2, 2), bias=False)\n","                (1): DetrFrozenBatchNorm2d()\n","              )\n","            )\n","            (1): Bottleneck(\n","              (conv1): Conv2d(1024, 256, kernel_size=(1, 1), stride=(1, 1), bias=False)\n","              (bn1): DetrFrozenBatchNorm2d()\n","              (act1): ReLU(inplace=True)\n","              (conv2): Conv2d(256, 256, kernel_size=(3, 3), stride=(1, 1), padding=(1, 1), bias=False)\n","              (bn2): DetrFrozenBatchNorm2d()\n","              (drop_block): Identity()\n","              (act2): ReLU(inplace=True)\n","              (aa): Identity()\n","              (conv3): Conv2d(256, 1024, kernel_size=(1, 1), stride=(1, 1), bias=False)\n","              (bn3): DetrFrozenBatchNorm2d()\n","              (act3): ReLU(inplace=True)\n","            )\n","            (2): Bottleneck(\n","              (conv1): Conv2d(1024, 256, kernel_size=(1, 1), stride=(1, 1), bias=False)\n","              (bn1): DetrFrozenBatchNorm2d()\n","              (act1): ReLU(inplace=True)\n","              (conv2): Conv2d(256, 256, kernel_size=(3, 3), stride=(1, 1), padding=(1, 1), bias=False)\n","              (bn2): DetrFrozenBatchNorm2d()\n","              (drop_block): Identity()\n","              (act2): ReLU(inplace=True)\n","              (aa): Identity()\n","              (conv3): Conv2d(256, 1024, kernel_size=(1, 1), stride=(1, 1), bias=False)\n","              (bn3): DetrFrozenBatchNorm2d()\n","              (act3): ReLU(inplace=True)\n","            )\n","            (3): Bottleneck(\n","              (conv1): Conv2d(1024, 256, kernel_size=(1, 1), stride=(1, 1), bias=False)\n","              (bn1): DetrFrozenBatchNorm2d()\n","              (act1): ReLU(inplace=True)\n","              (conv2): Conv2d(256, 256, kernel_size=(3, 3), stride=(1, 1), padding=(1, 1), bias=False)\n","              (bn2): DetrFrozenBatchNorm2d()\n","              (drop_block): Identity()\n","              (act2): ReLU(inplace=True)\n","              (aa): Identity()\n","              (conv3): Conv2d(256, 1024, kernel_size=(1, 1), stride=(1, 1), bias=False)\n","              (bn3): DetrFrozenBatchNorm2d()\n","              (act3): ReLU(inplace=True)\n","            )\n","            (4): Bottleneck(\n","              (conv1): Conv2d(1024, 256, kernel_size=(1, 1), stride=(1, 1), bias=False)\n","              (bn1): DetrFrozenBatchNorm2d()\n","              (act1): ReLU(inplace=True)\n","              (conv2): Conv2d(256, 256, kernel_size=(3, 3), stride=(1, 1), padding=(1, 1), bias=False)\n","              (bn2): DetrFrozenBatchNorm2d()\n","              (drop_block): Identity()\n","              (act2): ReLU(inplace=True)\n","              (aa): Identity()\n","              (conv3): Conv2d(256, 1024, kernel_size=(1, 1), stride=(1, 1), bias=False)\n","              (bn3): DetrFrozenBatchNorm2d()\n","              (act3): ReLU(inplace=True)\n","            )\n","            (5): Bottleneck(\n","              (conv1): Conv2d(1024, 256, kernel_size=(1, 1), stride=(1, 1), bias=False)\n","              (bn1): DetrFrozenBatchNorm2d()\n","              (act1): ReLU(inplace=True)\n","              (conv2): Conv2d(256, 256, kernel_size=(3, 3), stride=(1, 1), padding=(1, 1), bias=False)\n","              (bn2): DetrFrozenBatchNorm2d()\n","              (drop_block): Identity()\n","              (act2): ReLU(inplace=True)\n","              (aa): Identity()\n","              (conv3): Conv2d(256, 1024, kernel_size=(1, 1), stride=(1, 1), bias=False)\n","              (bn3): DetrFrozenBatchNorm2d()\n","              (act3): ReLU(inplace=True)\n","            )\n","          )\n","          (layer4): Sequential(\n","            (0): Bottleneck(\n","              (conv1): Conv2d(1024, 512, kernel_size=(1, 1), stride=(1, 1), bias=False)\n","              (bn1): DetrFrozenBatchNorm2d()\n","              (act1): ReLU(inplace=True)\n","              (conv2): Conv2d(512, 512, kernel_size=(3, 3), stride=(2, 2), padding=(1, 1), bias=False)\n","              (bn2): DetrFrozenBatchNorm2d()\n","              (drop_block): Identity()\n","              (act2): ReLU(inplace=True)\n","              (aa): Identity()\n","              (conv3): Conv2d(512, 2048, kernel_size=(1, 1), stride=(1, 1), bias=False)\n","              (bn3): DetrFrozenBatchNorm2d()\n","              (act3): ReLU(inplace=True)\n","              (downsample): Sequential(\n","                (0): Conv2d(1024, 2048, kernel_size=(1, 1), stride=(2, 2), bias=False)\n","                (1): DetrFrozenBatchNorm2d()\n","              )\n","            )\n","            (1): Bottleneck(\n","              (conv1): Conv2d(2048, 512, kernel_size=(1, 1), stride=(1, 1), bias=False)\n","              (bn1): DetrFrozenBatchNorm2d()\n","              (act1): ReLU(inplace=True)\n","              (conv2): Conv2d(512, 512, kernel_size=(3, 3), stride=(1, 1), padding=(1, 1), bias=False)\n","              (bn2): DetrFrozenBatchNorm2d()\n","              (drop_block): Identity()\n","              (act2): ReLU(inplace=True)\n","              (aa): Identity()\n","              (conv3): Conv2d(512, 2048, kernel_size=(1, 1), stride=(1, 1), bias=False)\n","              (bn3): DetrFrozenBatchNorm2d()\n","              (act3): ReLU(inplace=True)\n","            )\n","            (2): Bottleneck(\n","              (conv1): Conv2d(2048, 512, kernel_size=(1, 1), stride=(1, 1), bias=False)\n","              (bn1): DetrFrozenBatchNorm2d()\n","              (act1): ReLU(inplace=True)\n","              (conv2): Conv2d(512, 512, kernel_size=(3, 3), stride=(1, 1), padding=(1, 1), bias=False)\n","              (bn2): DetrFrozenBatchNorm2d()\n","              (drop_block): Identity()\n","              (act2): ReLU(inplace=True)\n","              (aa): Identity()\n","              (conv3): Conv2d(512, 2048, kernel_size=(1, 1), stride=(1, 1), bias=False)\n","              (bn3): DetrFrozenBatchNorm2d()\n","              (act3): ReLU(inplace=True)\n","            )\n","          )\n","        )\n","      )\n","      (position_embedding): DetrSinePositionEmbedding()\n","    )\n","    (input_projection): Conv2d(2048, 256, kernel_size=(1, 1), stride=(1, 1))\n","    (query_position_embeddings): Embedding(100, 256)\n","    (encoder): DetrEncoder(\n","      (layers): ModuleList(\n","        (0-5): 6 x DetrEncoderLayer(\n","          (self_attn): DetrAttention(\n","            (k_proj): Linear(in_features=256, out_features=256, bias=True)\n","            (v_proj): Linear(in_features=256, out_features=256, bias=True)\n","            (q_proj): Linear(in_features=256, out_features=256, bias=True)\n","            (out_proj): Linear(in_features=256, out_features=256, bias=True)\n","          )\n","          (self_attn_layer_norm): LayerNorm((256,), eps=1e-05, elementwise_affine=True)\n","          (activation_fn): ReLU()\n","          (fc1): Linear(in_features=256, out_features=2048, bias=True)\n","          (fc2): Linear(in_features=2048, out_features=256, bias=True)\n","          (final_layer_norm): LayerNorm((256,), eps=1e-05, elementwise_affine=True)\n","        )\n","      )\n","    )\n","    (decoder): DetrDecoder(\n","      (layers): ModuleList(\n","        (0-5): 6 x DetrDecoderLayer(\n","          (self_attn): DetrAttention(\n","            (k_proj): Linear(in_features=256, out_features=256, bias=True)\n","            (v_proj): Linear(in_features=256, out_features=256, bias=True)\n","            (q_proj): Linear(in_features=256, out_features=256, bias=True)\n","            (out_proj): Linear(in_features=256, out_features=256, bias=True)\n","          )\n","          (activation_fn): ReLU()\n","          (self_attn_layer_norm): LayerNorm((256,), eps=1e-05, elementwise_affine=True)\n","          (encoder_attn): DetrAttention(\n","            (k_proj): Linear(in_features=256, out_features=256, bias=True)\n","            (v_proj): Linear(in_features=256, out_features=256, bias=True)\n","            (q_proj): Linear(in_features=256, out_features=256, bias=True)\n","            (out_proj): Linear(in_features=256, out_features=256, bias=True)\n","          )\n","          (encoder_attn_layer_norm): LayerNorm((256,), eps=1e-05, elementwise_affine=True)\n","          (fc1): Linear(in_features=256, out_features=2048, bias=True)\n","          (fc2): Linear(in_features=2048, out_features=256, bias=True)\n","          (final_layer_norm): LayerNorm((256,), eps=1e-05, elementwise_affine=True)\n","        )\n","      )\n","      (layernorm): LayerNorm((256,), eps=1e-05, elementwise_affine=True)\n","    )\n","  )\n","  (class_labels_classifier): Linear(in_features=256, out_features=92, bias=True)\n","  (bbox_predictor): DetrMLPPredictionHead(\n","    (layers): ModuleList(\n","      (0-1): 2 x Linear(in_features=256, out_features=256, bias=True)\n","      (2): Linear(in_features=256, out_features=4, bias=True)\n","    )\n","  )\n",")"]},"metadata":{},"execution_count":3}]},{"cell_type":"code","source":["import cv2\n","import torch\n","import supervision as sv\n","\n","def predict_image(IMAGE_PATH):\n","  with torch.no_grad():\n","\n","      # load image and predict\n","      image = cv2.imread(IMAGE_PATH)\n","      inputs = image_processor(images=image, return
…
